models/mobilenet_v1_0.25_224_quant/mobilenet_v1_0.25_224_quant.tflite (tflite, 497264 bytes, 28 tensors)

MobilenetV1/Logits/Conv2d_1c_1x1/weights_quant/FakeQuantWithMinMaxVars u1 [1001, 1, 1, 256] scale=0.0062225875 zero_point=102
0	0x64	-0.012445175
1	0x64	-0.012445175
2	0x62	-0.02489035
3	0x64	-0.012445175
4	0x64	-0.012445175
5	0x63	-0.018667763
6	0x64	-0.012445175
7	0x64	-0.012445175
8	0x64	-0.012445175
9	0x61	-0.031112937
10	0x63	-0.018667763
11	0x65	-0.0062225875
12	0x63	-0.018667763
13	0x64	-0.012445175
14	0x63	-0.018667763
15	0x64	-0.012445175
16	0x64	-0.012445175
17	0x64	-0.012445175
18	0x64	-0.012445175
19	0x63	-0.018667763
20	0x63	-0.018667763
21	0x64	-0.012445175
22	0x63	-0.018667763
23	0x64	-0.012445175
24	0x64	-0.012445175
25	0x65	-0.0062225875
26	0x64	-0.012445175
27	0x64	-0.012445175
28	0x63	-0.018667763
29	0x64	-0.012445175
30	0x64	-0.012445175
31	0x62	-0.02489035
32	0x64	-0.012445175
33	0x62	-0.02489035
34	0x64	-0.012445175
35	0x63	-0.018667763
36	0x64	-0.012445175
37	0x64	-0.012445175
38	0x62	-0.02489035
39	0x64	-0.012445175
40	0x64	-0.012445175
41	0x64	-0.012445175
42	0x64	-0.012445175
43	0x64	-0.012445175
44	0x65	-0.0062225875
45	0x64	-0.012445175
46	0x64	-0.012445175
47	0x64	-0.012445175
48	0x65	-0.0062225875
49	0x64	-0.012445175
50	0x64	-0.012445175
51	0x63	-0.018667763
52	0x64	-0.012445175
53	0x62	-0.02489035
54	0x64	-0.012445175
55	0x64	-0.012445175
56	0x64	-0.012445175
57	0x64	-0.012445175
58	0x63	-0.018667763
59	0x65	-0.0062225875
60	0x64	-0.012445175
61	0x63	-0.018667763
62	0x64	-0.012445175
63	0x64	-0.012445175
64	0x64	-0.012445175
65	0x64	-0.012445175
66	0x65	-0.0062225875
67	0x64	-0.012445175
68	0x65	-0.0062225875
69	0x61	-0.031112937
70	0x64	-0.012445175
71	0x64	-0.012445175
72	0x64	-0.012445175
73	0x64	-0.012445175
74	0x63	-0.018667763
75	0x64	-0.012445175
76	0x64	-0.012445175
77	0x64	-0.012445175
78	0x63	-0.018667763
79	0x64	-0.012445175
80	0x63	-0.018667763
81	0x62	-0.02489035
82	0x63	-0.018667763
83	0x64	-0.012445175
84	0x64	-0.012445175
85	0x63	-0.018667763
86	0x65	-0.0062225875
87	0x64	-0.012445175
88	0x64	-0.012445175
89	0x64	-0.012445175
90	0x64	-0.012445175
91	0x65	-0.0062225875
92	0x63	-0.018667763
93	0x64	-0.012445175
94	0x64	-0.012445175
95	0x64	-0.012445175
96	0x63	-0.018667763
97	0x63	-0.018667763
98	0x63	-0.018667763
99	0x64	-0.012445175
100	0x65	-0.0062225875
101	0x64	-0.012445175
102	0x65	-0.0062225875
103	0x64	-0.012445175
104	0x64	-0.012445175
105	0x64	-0.012445175
106	0x63	-0.018667763
107	0x62	-0.02489035
108	0x64	-0.012445175
109	0x63	-0.018667763
110	0x64	-0.012445175
111	0x64	-0.012445175
112	0x64	-0.012445175
113	0x65	-0.0062225875
114	0x64	-0.012445175
115	0x64	-0.012445175
116	0x65	-0.0062225875
117	0x64	-0.012445175
118	0x65	-0.0062225875
119	0x64	-0.012445175
120	0x64	-0.012445175
121	0x63	-0.018667763
122	0x65	-0.0062225875
123	0x64	-0.012445175
124	0x64	-0.012445175
125	0x64	-0.012445175
126	0x64	-0.012445175
127	0x64	-0.012445175
128	0x63	-0.018667763
129	0x64	-0.012445175
130	0x64	-0.012445175
131	0x64	-0.012445175
132	0x63	-0.018667763
133	0x63	-0.018667763
134	0x64	-0.012445175
135	0x64	-0.012445175
136	0x64	-0.012445175
137	0x64	-0.012445175
138	0x64	-0.012445175
139	0x62	-0.02489035
140	0x63	-0.018667763
141	0x64	-0.012445175
142	0x62	-0.02489035
143	0x63	-0.018667763
144	0x63	-0.018667763
145	0x64	-0.012445175
146	0x63	-0.018667763
147	0x64	-0.012445175
148	0x64	-0.012445175
149	0x64	-0.012445175
150	0x64	-0.012445175
151	0x64	-0.012445175
152	0x64	-0.012445175
153	0x63	-0.018667763
154	0x62	-0.02489035
155	0x63	-0.018667763
156	0x65	-0.0062225875
157	0x64	-0.012445175
158	0x63	-0.018667763
159	0x60	-0.037335526
160	0x64	-0.012445175
161	0x64	-0.012445175
162	0x63	-0.018667763
163	0x64	-0.012445175
164	0x63	-0.018667763
165	0x65	-0.0062225875
166	0x64	-0.012445175
167	0x64	-0.012445175
168	0x64	-0.012445175
169	0x64	-0.012445175
170	0x64	-0.012445175
171	0x64	-0.012445175
172	0x64	-0.012445175
173	0x64	-0.012445175
174	0x65	-0.0062225875
175	0x65	-0.0062225875
176	0x63	-0.018667763
177	0x64	-0.012445175
178	0x63	-0.018667763
179	0x64	-0.012445175
180	0x64	-0.012445175
181	0x64	-0.012445175
182	0x62	-0.02489035
183	0x64	-0.012445175
184	0x62	-0.02489035
185	0x65	-0.0062225875
186	0x64	-0.012445175
187	0x64	-0.012445175
188	0x64	-0.012445175
189	0x64	-0.012445175
190	0x64	-0.012445175
191	0x64	-0.012445175
192	0x64	-0.012445175
193	0x63	-0.018667763
194	0x64	-0.012445175
195	0x64	-0.012445175
196	0x64	-0.012445175
197	0x64	-0.012445175
198	0x64	-0.012445175
199	0x65	-0.0062225875
200	0x64	-0.012445175
201	0x64	-0.012445175
202	0x63	-0.018667763
203	0x64	-0.012445175
204	0x63	-0.018667763
205	0x64	-0.012445175
206	0x64	-0.012445175
207	0x64	-0.012445175
208	0x64	-0.012445175
209	0x64	-0.012445175
210	0x62	-0.02489035
211	0x63	-0.018667763
212	0x63	-0.018667763
213	0x64	-0.012445175
214	0x64	-0.012445175
215	0x64	-0.012445175
216	0x63	-0.018667763
217	0x63	-0.018667763
218	0x63	-0.018667763
219	0x64	-0.012445175
220	0x64	-0.012445175
221	0x63	-0.018667763
222	0x65	-0.0062225875
223	0x63	-0.018667763
224	0x64	-0.012445175
225	0x64	-0.012445175
226	0x64	-0.012445175
227	0x64	-0.012445175
228	0x64	-0.012445175
229	0x63	-0.018667763
230	0x65	-0.0062225875
231	0x64	-0.012445175
232	0x65	-0.0062225875
233	0x63	-0.018667763
234	0x60	-0.037335526
235	0x64	-0.012445175
236	0x63	-0.018667763
237	0x64	-0.012445175
238	0x64	-0.012445175
239	0x64	-0.012445175
240	0x64	-0.012445175
241	0x64	-0.012445175
242	0x64	-0.012445175
243	0x64	-0.012445175
244	0x64	-0.012445175
245	0x65	-0.0062225875
246	0x63	-0.018667763
247	0x64	-0.012445175
248	0x64	-0.012445175
249	0x64	-0.012445175
250	0x64	-0.012445175
251	0x64	-0.012445175
252	0x64	-0.012445175
253	0x64	-0.012445175
254	0x64	-0.012445175
255	0x64	-0.012445175

MobilenetV1/MobilenetV1/Conv2d_0/weights_quant/FakeQuantWithMinMaxVars u1 [8, 3, 3, 3] scale=0.014914294 zero_point=153
0	0x97	-0.029828588
1	0x91	-0.11931435
2	0x97	-0.029828588
3	0x92	-0.10440005
4	0x8e	-0.16405722
5	0x95	-0.059657175
6	0x9b	0.029828588
7	0x9c	0.044742882
8	0x99	0.0
9	0x8a	-0.22371441
10	0x7c	-0.43251452
11	0x92	-0.10440005
12	0x8a	-0.22371441
13	0x7f	-0.38777164
14	0x93	-0.089485765
15	0x99	0.0
16	0x9a	0.014914294
17	0x98	-0.014914294
18	0x8b	-0.2088001
19	0x84	-0.31320018
20	0x93	-0.089485765
21	0x8f	-0.14914294
22	0x8b	-0.2088001
23	0x96	-0.044742882
24	0x98	-0.014914294
25	0x98	-0.014914294
26	0x99	0.0
27	0x99	0.0
28	0x99	0.0
29	0x99	0.0
30	0x98	-0.014914294
31	0x99	0.0
32	0x99	0.0
33	0x99	0.0
34	0x99	0.0
35	0x99	0.0
36	0x9a	0.014914294
37	0x9a	0.014914294
38	0x9a	0.014914294
39	0x9a	0.014914294
40	0x9a	0.014914294
41	0x9a	0.014914294
42	0x99	0.0
43	0x99	0.0
44	0x9a	0.014914294
45	0x99	0.0
46	0x99	0.0
47	0x99	0.0
48	0x99	0.0
49	0x99	0.0
50	0x99	0.0
51	0x9a	0.014914294
52	0x9a	0.014914294
53	0x9b	0.029828588
54	0x99	0.0
55	0x98	-0.014914294
56	0x98	-0.014914294
57	0x99	0.0
58	0x98	-0.014914294
59	0x99	0.0
60	0x98	-0.014914294
61	0x98	-0.014914294
62	0x99	0.0
63	0x99	0.0
64	0x98	-0.014914294
65	0x99	0.0
66	0x99	0.0
67	0x99	0.0
68	0x99	0.0
69	0x98	-0.014914294
70	0x98	-0.014914294
71	0x99	0.0
72	0x99	0.0
73	0x98	-0.014914294
74	0x99	0.0
75	0x99	0.0
76	0x98	-0.014914294
77	0x99	0.0
78	0x99	0.0
79	0x98	-0.014914294
80	0x99	0.0
81	0xa5	0.17897153
82	0xa6	0.19388582
83	0x9b	0.029828588
84	0xa6	0.19388582
85	0xaf	0.32811445
86	0x9f	0.089485765
87	0x9c	0.044742882
88	0xa5	0.17897153
89	0x9d	0.059657175
90	0xa4	0.16405722
91	0xa3	0.14914294
92	0x9b	0.029828588
93	0xa6	0.19388582
94	0xad	0.29828587
95	0x9e	0.07457147
96	0x9e	0.07457147
97	0xa3	0.14914294
98	0x9c	0.044742882
99	0x9a	0.014914294
100	0x93	-0.089485765
101	0x99	0.0
102	0x9a	0.014914294
103	0x97	-0.029828588
104	0x9a	0.014914294
105	0x98	-0.014914294
106	0x9c	0.044742882
107	0x9a	0.014914294
108	0xff	1.521258
109	0x8f	-0.14914294
110	0xb2	0.37285733
111	0x66	-0.760629
112	0x2f	-1.5809151
113	0x7c	-0.43251452
114	0x01	-2.2669725
115	0x4e	-1.118572
116	0x79	-0.4772574
117	0xde	1.0290862
118	0xbc	0.52200025
119	0xb5	0.4176002
120	0x7d	-0.4176002
121	0x91	-0.11931435
122	0x97	-0.029828588
123	0x36	-1.476515
124	0x8f	-0.14914294
125	0x84	-0.31320018
126	0x88	-0.253543
127	0x65	-0.7755433
128	0x8e	-0.16405722
129	0xb1	0.35794306
130	0x9b	0.029828588
131	0x9a	0.014914294
132	0xea	1.2080578
133	0x8b	-0.2088001
134	0x8f	-0.14914294
135	0x82	-0.34302875
136	0x94	-0.07457147
137	0xa7	0.2088001
138	0x96	-0.044742882
139	0xa9	0.2386287
140	0x9c	0.044742882
141	0x81	-0.35794306
142	0xaa	0.253543
143	0xa3	0.14914294
144	0x82	-0.34302875
145	0x9e	0.07457147
146	0xa5	0.17897153
147	0x95	-0.059657175
148	0xab	0.2684573
149	0x99	0.0
150	0x80	-0.37285733
151	0xa6	0.19388582
152	0xa5	0.17897153
153	0x8b	-0.2088001
154	0xa0	0.10440005
155	0x9f	0.089485765
156	0x8f	-0.14914294
157	0xa1	0.11931435
158	0x9a	0.014914294
159	0x92	-0.10440005
160	0x9d	0.059657175
161	0x9a	0.014914294
162	0xb2	0.37285733
163	0x90	-0.13422865
164	0x7f	-0.38777164
165	0xa6	0.19388582
166	0x9e	0.07457147
167	0x93	-0.089485765
168	0xb7	0.44742882
169	0x9a	0.014914294
170	0x7c	-0.43251452
171	0xae	0.31320018
172	0x91	-0.11931435
173	0x85	-0.29828587
174	0x9b	0.029828588
175	0x9c	0.044742882
176	0x9d	0.059657175
177	0xb9	0.4772574
178	0x97	-0.029828588
179	0x7c	-0.43251452
180	0xa7	0.2088001
181	0x98	-0.014914294
182	0x8d	-0.17897153
183	0xa0	0.10440005
184	0x95	-0.059657175
185	0x95	-0.059657175
186	0xad	0.29828587
187	0x8e	-0.16405722
188	0x8e	-0.16405722
189	0x96	-0.044742882
190	0xaf	0.32811445
191	0x88	-0.253543
192	0x8f	-0.14914294
193	0xaf	0.32811445
194	0x8c	-0.19388582
195	0x8e	-0.16405722
196	0xad	0.29828587
197	0x8f	-0.14914294
198	0x8c	-0.19388582
199	0xb9	0.4772574
200	0x86	-0.28337157
201	0x86	-0.28337157
202	0xb9	0.4772574
203	0x8a	-0.22371441
204	0x8a	-0.22371441
205	0xb6	0.43251452
206	0x8a	-0.22371441
207	0x8d	-0.17897153
208	0xb1	0.35794306
209	0x8c	-0.19388582
210	0x8c	-0.19388582
211	0xb1	0.35794306
212	0x8e	-0.16405722
213	0x91	-0.11931435
214	0xad	0.29828587
215	0x8d	-0.17897153

MobilenetV1/MobilenetV1/Conv2d_10_depthwise/weights_quant/FakeQuantWithMinMaxVars u1 [1, 3, 3, 128] scale=0.019942462 zero_point=166
0	0xa4	-0.039884925
1	0xac	0.119654775
2	0xaa	0.07976985
3	0x9d	-0.17948216
4	0xaa	0.07976985
5	0xa9	0.059827387
6	0xbd	0.45867664
7	0xa8	0.039884925
8	0x9f	-0.13959724
9	0xaa	0.07976985
10	0x9f	-0.13959724
11	0x9c	-0.19942462
12	0xaa	0.07976985
13	0xa2	-0.07976985
14	0x9f	-0.13959724
15	0xa8	0.039884925
16	0xb9	0.3789068
17	0x9f	-0.13959724
18	0xb7	0.33902186
19	0xa1	-0.09971231
20	0xa6	0.0
21	0x9e	-0.1595397
22	0xad	0.13959724
23	0xa4	-0.039884925
24	0xa3	-0.059827387
25	0xaf	0.17948216
26	0xb2	0.23930955
27	0xa2	-0.07976985
28	0xb9	0.3789068
29	0xa2	-0.07976985
30	0xab	0.09971231
31	0xa1	-0.09971231
32	0xa5	-0.019942462
33	0xa5	-0.019942462
34	0xba	0.39884925
35	0xa0	-0.119654775
36	0xa0	-0.119654775
37	0xa6	0.0
38	0xbe	0.4786191
39	0xa1	-0.09971231
40	0x9e	-0.1595397
41	0xbd	0.45867664
42	0xbc	0.43873417
43	0xa8	0.039884925
44	0xb3	0.259252
45	0xa6	0.0
46	0xb4	0.27919447
47	0xb0	0.19942462
48	0xa3	-0.059827387
49	0xa2	-0.07976985
50	0xb8	0.35896432
51	0xb7	0.33902186
52	0xa8	0.039884925
53	0xa4	-0.039884925
54	0xab	0.09971231
55	0xa0	-0.119654775
56	0xaf	0.17948216
57	0x9e	-0.1595397
58	0xa1	-0.09971231
59	0x9d	-0.17948216
60	0xa8	0.039884925
61	0xbe	0.4786191
62	0xa0	-0.119654775
63	0xb6	0.3190794
64	0xb3	0.259252
65	0xa6	0.0
66	0x99	-0.259252
67	0xaa	0.07976985
68	0xb8	0.35896432
69	0xaa	0.07976985
70	0xa9	0.059827387
71	0xb9	0.3789068
72	0xa2	-0.07976985
73	0xa1	-0.09971231
74	0xad	0.13959724
75	0xae	0.1595397
76	0xbd	0.45867664
77	0xaa	0.07976985
78	0xa7	0.019942462
79	0x91	-0.4187917
80	0xaa	0.07976985
81	0xba	0.39884925
82	0xa9	0.059827387
83	0x9b	-0.21936709
84	0x9a	-0.23930955
85	0xa2	-0.07976985
86	0x9f	-0.13959724
87	0xa8	0.039884925
88	0xa3	-0.059827387
89	0xaa	0.07976985
90	0x9c	-0.19942462
91	0xa6	0.0
92	0xa6	0.0
93	0xa7	0.019942462
94	0xa5	-0.019942462
95	0xa4	-0.039884925
96	0x9c	-0.19942462
97	0xa0	-0.119654775
98	0xa7	0.019942462
99	0xa0	-0.119654775
100	0xae	0.1595397
101	0xa3	-0.059827387
102	0xa2	-0.07976985
103	0x9a	-0.23930955
104	0xa8	0.039884925
105	0x9f	-0.13959724
106	0xa6	0.0
107	0x9f	-0.13959724
108	0xa4	-0.039884925
109	0xcd	0.77775604
110	0xa4	-0.039884925
111	0xb8	0.35896432
112	0xb0	0.19942462
113	0xa0	-0.119654775
114	0x9b	-0.21936709
115	0xa3	-0.059827387
116	0xa2	-0.07976985
117	0xa8	0.039884925
118	0xa9	0.059827387
119	0x9e	-0.1595397
120	0xad	0.13959724
121	0x99	-0.259252
122	0xac	0.119654775
123	0x9f	-0.13959724
124	0xa4	-0.039884925
125	0x99	-0.259252
126	0xa5	-0.019942462
127	0xaa	0.07976985
128	0xa6	0.0
129	0xba	0.39884925
130	0xa5	-0.019942462
131	0x9e	-0.1595397
132	0xae	0.1595397
133	0x9f	-0.13959724
134	0x95	-0.33902186
135	0xa8	0.039884925
136	0xa1	-0.09971231
137	0x99	-0.259252
138	0x89	-0.5783314
139	0x9d	-0.17948216
140	0xa7	0.019942462
141	0x99	-0.259252
142	0x9f	-0.13959724
143	0xac	0.119654775
144	0xaf	0.17948216
145	0x97	-0.29913694
146	0xbb	0.4187917
147	0x8e	-0.4786191
148	0xa3	-0.059827387
149	0xa0	-0.119654775
150	0xc8	0.6780437
151	0xab	0.09971231
152	0xa5	-0.019942462
153	0xb7	0.33902186
154	0xce	0.7976985
155	0x9c	-0.19942462
156	0x99	-0.259252
157	0x9f	-0.13959724
158	0xa2	-0.07976985
159	0xa4	-0.039884925
160	0xa7	0.019942462
161	0xad	0.13959724
162	0xb5	0.29913694
163	0x9f	-0.13959724
164	0x9a	-0.23930955
165	0xa4	-0.039884925
166	0xbc	0.43873417
167	0x9f	-0.13959724
168	0x9d	-0.17948216
169	0xc9	0.6979862
170	0xb6	0.3190794
171	0x82	-0.71792865
172	0xb3	0.259252
173	0xab	0.09971231
174	0xb6	0.3190794
175	0xc7	0.65810126
176	0xa0	-0.119654775
177	0xa0	-0.119654775
178	0xbb	0.4187917
179	0xa4	-0.039884925
180	0xaa	0.07976985
181	0x99	-0.259252
182	0xb0	0.19942462
183	0x9b	-0.21936709
184	0xb1	0.21936709
185	0x96	-0.3190794
186	0x9e	-0.1595397
187	0xa0	-0.119654775
188	0xa9	0.059827387
189	0x5c	-1.4757422
190	0xa2	-0.07976985
191	0xba	0.39884925
192	0xba	0.39884925
193	0xa3	-0.059827387
194	0x8f	-0.45867664
195	0xba	0.39884925
196	0xd5	0.93729573
197	0xb5	0.29913694
198	0xa9	0.059827387
199	0xc3	0.5783314
200	0x9c	-0.19942462
201	0xb5	0.29913694
202	0xad	0.13959724
203	0xc0	0.518504
204	0xbd	0.45867664
205	0xb5	0.29913694
206	0xa5	-0.019942462
207	0x99	-0.259252
208	0xae	0.1595397
209	0x98	-0.27919447
210	0xab	0.09971231
211	0x86	-0.6381588
212	0x9c	-0.19942462
213	0x96	-0.3190794
214	0x9b	-0.21936709
215	0xb6	0.3190794
216	0xa2	-0.07976985
217	0xa9	0.059827387
218	0x98	-0.27919447
219	0xa7	0.019942462
220	0xac	0.119654775
221	0xa6	0.0
222	0x9c	-0.19942462
223	0xa2	-0.07976985
224	0x97	-0.29913694
225	0xa1	-0.09971231
226	0xaa	0.07976985
227	0x91	-0.4187917
228	0xb1	0.21936709
229	0xa6	0.0
230	0x9f	-0.13959724
231	0xa2	-0.07976985
232	0xae	0.1595397
233	0x90	-0.43873417
234	0xab	0.09971231
235	0x94	-0.35896432
236	0xa0	-0.119654775
237	0xc8	0.6780437
238	0xc0	0.518504
239	0xb2	0.23930955
240	0xb0	0.19942462
241	0x8d	-0.49856156
242	0x85	-0.65810126
243	0x9a	-0.23930955
244	0xa1	-0.09971231
245	0xa4	-0.039884925
246	0xb5	0.29913694
247	0x9c	-0.19942462
248	0x9a	-0.23930955
249	0xa7	0.019942462
250	0xbb	0.4187917
251	0xa1	-0.09971231
252	0xa9	0.059827387
253	0x94	-0.35896432
254	0xa5	-0.019942462
255	0xac	0.119654775

MobilenetV1/MobilenetV1/Conv2d_10_pointwise/weights_quant/FakeQuantWithMinMaxVars u1 [128, 1, 1, 128] scale=0.008997622 zero_point=160
0	0xa7	0.06298336
1	0xaf	0.13496433
2	0x9e	-0.017995244
3	0xa0	0.0
4	0x98	-0.071980976
5	0xa4	0.035990488
6	0x94	-0.10797146
7	0xa2	0.017995244
8	0xab	0.09897384
9	0x7b	-0.332912
10	0xa7	0.06298336
11	0xa6	0.05398573
12	0xae	0.12596671
13	0x93	-0.116969086
14	0xa8	0.071980976
15	0x90	-0.14396195
16	0x85	-0.24293579
17	0x93	-0.116969086
18	0x87	-0.22494055
19	0xa2	0.017995244
20	0xa0	0.0
21	0xa2	0.017995244
22	0xa2	0.017995244
23	0xa8	0.071980976
24	0x8e	-0.16195719
25	0x97	-0.080978595
26	0x91	-0.13496433
27	0x9c	-0.035990488
28	0xb9	0.22494055
29	0xa0	0.0
30	0xa2	0.017995244
31	0x96	-0.08997622
32	0xb8	0.21594292
33	0x9b	-0.04498811
34	0x55	-0.6748217
35	0xa5	0.04498811
36	0x98	-0.071980976
37	0xaa	0.08997622
38	0xa0	0.0
39	0xa4	0.035990488
40	0x7a	-0.34190965
41	0xb5	0.18895006
42	0x8f	-0.15295957
43	0x91	-0.13496433
44	0xb8	0.21594292
45	0xa0	0.0
46	0x9d	-0.026992865
47	0xab	0.09897384
48	0x96	-0.08997622
49	0xa1	0.008997622
50	0x83	-0.26093104
51	0x47	-0.80078834
52	0x9a	-0.05398573
53	0x98	-0.071980976
54	0x8e	-0.16195719
55	0x9f	-0.008997622
56	0xa2	0.017995244
57	0x96	-0.08997622
58	0xa0	0.0
59	0xa2	0.017995244
60	0x9e	-0.017995244
61	0xbd	0.26093104
62	0xa0	0.0
63	0x9c	-0.035990488
64	0xb0	0.14396195
65	0xf5	0.76479787
66	0x65	-0.5308597
67	0x96	-0.08997622
68	0x7e	-0.30591914
69	0xa3	0.026992865
70	0xab	0.09897384
71	0x6f	-0.4408835
72	0xa0	0.0
73	0x84	-0.25193343
74	0x95	-0.09897384
75	0x9e	-0.017995244
76	0x97	-0.080978595
77	0xa1	0.008997622
78	0x9a	-0.05398573
79	0xa2	0.017995244
80	0x9d	-0.026992865
81	0x95	-0.09897384
82	0x9f	-0.008997622
83	0x89	-0.2069453
84	0xb1	0.15295957
85	0x9f	-0.008997622
86	0x8e	-0.16195719
87	0xa0	0.0
88	0x8a	-0.19794768
89	0xa1	0.008997622
90	0x9d	-0.026992865
91	0xa1	0.008997622
92	0xa0	0.0
93	0xa1	0.008997622
94	0x98	-0.071980976
95	0x99	-0.06298336
96	0xaf	0.13496433
97	0xa0	0.0
98	0x9d	-0.026992865
99	0xb2	0.16195719
100	0x9b	-0.04498811
101	0xa1	0.008997622
102	0xa0	0.0
103	0xb5	0.18895006
104	0xa8	0.071980976
105	0x9c	-0.035990488
106	0x96	-0.08997622
107	0x82	-0.26992866
108	0xa3	0.026992865
109	0xbd	0.26093104
110	0x90	-0.14396195
111	0x74	-0.39589536
112	0xa3	0.026992865
113	0x8d	-0.17095482
114	0x90	-0.14396195
115	0xaa	0.08997622
116	0x9b	-0.04498811
117	0xa1	0.008997622
118	0x9b	-0.04498811
119	0x99	-0.06298336
120	0x9d	-0.026992865
121	0xa4	0.035990488
122	0xa4	0.035990488
123	0x9a	-0.05398573
124	0xb1	0.15295957
125	0xac	0.10797146
126	0xa1	0.008997622
127	0x9b	-0.04498811
128	0x89	-0.2069453
129	0x9a	-0.05398573
130	0x83	-0.26093104
131	0xc7	0.35090727
132	0xa4	0.035990488
133	0xa5	0.04498811
134	0x9f	-0.008997622
135	0xbe	0.26992866
136	0xa5	0.04498811
137	0x90	-0.14396195
138	0xa3	0.026992865
139	0x9b	-0.04498811
140	0xa7	0.06298336
141	0xb2	0.16195719
142	0x86	-0.23393817
143	0x93	-0.116969086
144	0x9e	-0.017995244
145	0xa0	0.0
146	0xa4	0.035990488
147	0x9a	-0.05398573
148	0xad	0.116969086
149	0xb4	0.17995244
150	0xa5	0.04498811
151	0x98	-0.071980976
152	0x88	-0.21594292
153	0x9c	-0.035990488
154	0x98	-0.071980976
155	0x82	-0.26992866
156	0xa6	0.05398573
157	0x98	-0.071980976
158	0xad	0.116969086
159	0xa0	0.0
160	0xad	0.116969086
161	0xa7	0.06298336
162	0x95	-0.09897384
163	0x9e	-0.017995244
164	0x9b	-0.04498811
165	0xb4	0.17995244
166	0x98	-0.071980976
167	0x9a	-0.05398573
168	0xa7	0.06298336
169	0xbe	0.26992866
170	0x9b	-0.04498811
171	0x90	-0.14396195
172	0x98	-0.071980976
173	0xae	0.12596671
174	0xb7	0.2069453
175	0x9f	-0.008997622
176	0xb7	0.2069453
177	0xa5	0.04498811
178	0xc1	0.29692152
179	0x9e	-0.017995244
180	0xaf	0.13496433
181	0x8e	-0.16195719
182	0x95	-0.09897384
183	0x91	-0.13496433
184	0xbb	0.24293579
185	0x98	-0.071980976
186	0xa9	0.080978595
187	0xaa	0.08997622
188	0xa4	0.035990488
189	0xb3	0.17095482
190	0xb3	0.17095482
191	0x9f	-0.008997622
192	0xab	0.09897384
193	0xa1	0.008997622
194	0x8f	-0.15295957
195	0xb2	0.16195719
196	0xa7	0.06298336
197	0xb2	0.16195719
198	0x9a	-0.05398573
199	0x91	-0.13496433
200	0xa6	0.05398573
201	0x94	-0.10797146
202	0x9c	-0.035990488
203	0x9b	-0.04498811
204	0xa6	0.05398573
205	0x95	-0.09897384
206	0xc4	0.32391438
207	0x9d	-0.026992865
208	0x9e	-0.017995244
209	0x9a	-0.05398573
210	0xad	0.116969086
211	0x94	-0.10797146
212	0x9c	-0.035990488
213	0xc0	0.2879239
214	0xad	0.116969086
215	0x98	-0.071980976
216	0xbc	0.25193343
217	0x75	-0.38689774
218	0xa7	0.06298336
219	0xa1	0.008997622
220	0xc8	0.3599049
221	0x83	-0.26093104
222	0xc8	0.3599049
223	0x9f	-0.008997622
224	0x86	-0.23393817
225	0x89	-0.2069453
226	0xae	0.12596671
227	0x9e	-0.017995244
228	0xa6	0.05398573
229	0x82	-0.26992866
230	0xb0	0.14396195
231	0x9a	-0.05398573
232	0x8c	-0.17995244
233	0x94	-0.10797146
234	0x9f	-0.008997622
235	0x93	-0.116969086
236	0xaf	0.13496433
237	0xa7	0.06298336
238	0x8d	-0.17095482
239	0x99	-0.06298336
240	0xa7	0.06298336
241	0x92	-0.12596671
242	0xab	0.09897384
243	0x84	-0.25193343
244	0x9b	-0.04498811
245	0xb4	0.17995244
246	0x8e	-0.16195719
247	0x93	-0.116969086
248	0x97	-0.080978595
249	0x80	-0.2879239
250	0xb0	0.14396195
251	0x93	-0.116969086
252	0x9d	-0.026992865
253	0x9e	-0.017995244
254	0x99	-0.06298336
255	0x91	-0.13496433

MobilenetV1/MobilenetV1/Conv2d_11_depthwise/weights_quant/FakeQuantWithMinMaxVars u1 [1, 3, 3, 128] scale=0.025411526 zero_point=102
0	0x72	0.30493832
1	0x60	-0.15246916
2	0x7a	0.5082305
3	0x65	-0.025411526
4	0x5a	-0.30493832
5	0x78	0.45740747
6	0x6b	0.12705763
7	0x42	-0.91481495
8	0x61	-0.12705763
9	0x67	0.025411526
10	0x71	0.27952677
11	0x68	0.05082305
12	0x5c	-0.25411525
13	0x68	0.05082305
14	0x6a	0.1016461
15	0x60	-0.15246916
16	0x86	0.8131688
17	0x6e	0.2032922
18	0x75	0.3811729
19	0x5e	-0.2032922
20	0x73	0.33034983
21	0x64	-0.05082305
22	0x67	0.025411526
23	0x64	-0.05082305
24	0x69	0.07623458
25	0x6b	0.12705763
26	0x5e	-0.2032922
27	0x5f	-0.17788067
28	0x67	0.025411526
29	0x6d	0.17788067
30	0x67	0.025411526
31	0x70	0.25411525
32	0x60	-0.15246916
33	0x6f	0.22870374
34	0x67	0.025411526
35	0x62	-0.1016461
36	0x6c	0.15246916
37	0x77	0.43199593
38	0x70	0.25411525
39	0x69	0.07623458
40	0x59	-0.33034983
41	0x66	0.0
42	0x60	-0.15246916
43	0x69	0.07623458
44	0x5c	-0.25411525
45	0x68	0.05082305
46	0x72	0.30493832
47	0x69	0.07623458
48	0x68	0.05082305
49	0x60	-0.15246916
50	0x5d	-0.22870374
51	0x77	0.43199593
52	0x6d	0.17788067
53	0x58	-0.35576135
54	0x5f	-0.17788067
55	0x61	-0.12705763
56	0x71	0.27952677
57	0x60	-0.15246916
58	0x5f	-0.17788067
59	0x5d	-0.22870374
60	0x75	0.3811729
61	0x60	-0.15246916
62	0x65	-0.025411526
63	0x3e	-1.016461
64	0x7a	0.5082305
65	0x53	-0.482819
66	0x63	-0.07623458
67	0x64	-0.05082305
68	0x63	-0.07623458
69	0x5b	-0.27952677
70	0x64	-0.05082305
71	0x60	-0.15246916
72	0x7c	0.55905354
73	0x5e	-0.2032922
74	0x65	-0.025411526
75	0x6b	0.12705763
76	0x64	-0.05082305
77	0x69	0.07623458
78	0x5b	-0.27952677
79	0x6c	0.15246916
80	0x5e	-0.2032922
81	0x5f	-0.17788067
82	0x74	0.35576135
83	0x65	-0.025411526
84	0x69	0.07623458
85	0x6b	0.12705763
86	0x59	-0.33034983
87	0x6f	0.22870374
88	0x64	-0.05082305
89	0x62	-0.1016461
90	0x6f	0.22870374
91	0x61	-0.12705763
92	0x75	0.3811729
93	0x64	-0.05082305
94	0x6c	0.15246916
95	0x6a	0.1016461
96	0x6d	0.17788067
97	0x6f	0.22870374
98	0x62	-0.1016461
99	0x74	0.35576135
100	0x5d	-0.22870374
101	0x60	-0.15246916
102	0x65	-0.025411526
103	0x5f	-0.17788067
104	0x71	0.27952677
105	0x67	0.025411526
106	0x61	-0.12705763
107	0x57	-0.3811729
108	0x68	0.05082305
109	0x72	0.30493832
110	0x5e	-0.2032922
111	0x58	-0.35576135
112	0x6e	0.2032922
113	0x6e	0.2032922
114	0x62	-0.1016461
115	0x5f	-0.17788067
116	0x68	0.05082305
117	0x68	0.05082305
118	0x6f	0.22870374
119	0x5f	-0.17788067
120	0x6f	0.22870374
121	0x6f	0.22870374
122	0x64	-0.05082305
123	0x69	0.07623458
124	0x70	0.25411525
125	0x7a	0.5082305
126	0x6a	0.1016461
127	0x6a	0.1016461
128	0x73	0.33034983
129	0x5e	-0.2032922
130	0x79	0.482819
131	0x69	0.07623458
132	0x53	-0.482819
133	0x62	-0.1016461
134	0x74	0.35576135
135	0x6d	0.17788067
136	0x60	-0.15246916
137	0x7c	0.55905354
138	0x69	0.07623458
139	0x74	0.35576135
140	0x5b	-0.27952677
141	0x4c	-0.66069967
142	0x71	0.27952677
143	0x66	0.0
144	0x69	0.07623458
145	0x74	0.35576135
146	0x7b	0.53364205
147	0x5f	-0.17788067
148	0x79	0.482819
149	0x77	0.43199593
150	0x77	0.43199593
151	0x6b	0.12705763
152	0x74	0.35576135
153	0x71	0.27952677
154	0x5d	-0.22870374
155	0x60	-0.15246916
156	0x6e	0.2032922
157	0x7b	0.53364205
158	0x75	0.3811729
159	0x70	0.25411525
160	0x5e	-0.2032922
161	0x6c	0.15246916
162	0x6e	0.2032922
163	0x60	-0.15246916
164	0x6c	0.15246916
165	0x86	0.8131688
166	0x70	0.25411525
167	0x5c	-0.25411525
168	0x58	-0.35576135
169	0x6a	0.1016461
170	0x61	-0.12705763
171	0x6b	0.12705763
172	0x5f	-0.17788067
173	0x66	0.0
174	0x75	0.3811729
175	0x73	0.33034983
176	0x73	0.33034983
177	0x5f	-0.17788067
178	0x5d	-0.22870374
179	0x63	-0.07623458
180	0x77	0.43199593
181	0x62	-0.1016461
182	0x52	-0.5082305
183	0x66	0.0
184	0x68	0.05082305
185	0x5f	-0.17788067
186	0x51	-0.53364205
187	0x52	-0.5082305
188	0x72	0.30493832
189	0x5a	-0.30493832
190	0x62	-0.1016461
191	0x8d	0.9910495
192	0x8d	0.9910495
193	0x5d	-0.22870374
194	0x6e	0.2032922
195	0x5f	-0.17788067
196	0x58	-0.35576135
197	0x59	-0.33034983
198	0x68	0.05082305
199	0x60	-0.15246916
200	0x76	0.4065844
201	0x5f	-0.17788067
202	0x6c	0.15246916
203	0x6b	0.12705763
204	0x71	0.27952677
205	0x6f	0.22870374
206	0x94	1.1689302
207	0x7c	0.55905354
208	0x63	-0.07623458
209	0x60	-0.15246916
210	0x69	0.07623458
211	0x5c	-0.25411525
212	0x77	0.43199593
213	0x78	0.45740747
214	0x5f	-0.17788067
215	0x77	0.43199593
216	0x5e	-0.2032922
217	0x7c	0.55905354
218	0x67	0.025411526
219	0x5e	-0.2032922
220	0x71	0.27952677
221	0x6a	0.1016461
222	0x7e	0.60987663
223	0x6e	0.2032922
224	0x7a	0.5082305
225	0x83	0.73693424
226	0x60	-0.15246916
227	0x6b	0.12705763
228	0x64	-0.05082305
229	0x5e	-0.2032922
230	0x6d	0.17788067
231	0x5e	-0.2032922
232	0x6c	0.15246916
233	0x5a	-0.30493832
234	0x5f	-0.17788067
235	0x4c	-0.66069967
236	0x7b	0.53364205
237	0x76	0.4065844
238	0x64	-0.05082305
239	0x5e	-0.2032922
240	0x75	0.3811729
241	0x6f	0.22870374
242	0x5c	-0.25411525
243	0x5e	-0.2032922
244	0x6b	0.12705763
245	0x62	-0.1016461
246	0x6c	0.15246916
247	0x63	-0.07623458
248	0x73	0.33034983
249	0x72	0.30493832
250	0x60	-0.15246916
251	0x70	0.25411525
252	0x6e	0.2032922
253	0x7d	0.5844651
254	0x5b	-0.27952677
255	0x55	-0.43199593

MobilenetV1/MobilenetV1/Conv2d_11_pointwise/weights_quant/FakeQuantWithMinMaxVars u1 [128, 1, 1, 128] scale=0.006943106 zero_point=128
0	0x68	-0.16663454
1	0x69	-0.15969144
2	0x80	0.0
3	0x97	0.15969144
4	0x89	0.062487956
5	0x5e	-0.23606561
6	0x9a	0.18052076
7	0x7f	-0.006943106
8	0x6e	-0.12497591
9	0x92	0.12497591
10	0x78	-0.05554485
11	0x94	0.13886212
12	0x94	0.13886212
13	0x76	-0.06943106
14	0x7c	-0.027772425
15	0xb2	0.3471553
16	0xa4	0.24995182
17	0x8a	0.06943106
18	0x80	0.0
19	0x90	0.1110897
20	0x7d	-0.020829318
21	0x99	0.17357765
22	0x6e	-0.12497591
23	0x6e	-0.12497591
24	0x61	-0.21523629
25	0x75	-0.076374166
26	0x7b	-0.03471553
27	0x63	-0.20135008
28	0x7e	-0.013886212
29	0x56	-0.29161045
30	0x91	0.118032806
31	0x80	0.0
32	0x95	0.14580522
33	0x69	-0.15969144
34	0x8d	0.09026038
35	0x7c	-0.027772425
36	0x8b	0.076374166
37	0xaa	0.29161045
38	0x75	-0.076374166
39	0x72	-0.097203486
40	0x8c	0.08331727
41	0x88	0.05554485
42	0x7c	-0.027772425
43	0x7e	-0.013886212
44	0x96	0.15274833
45	0x88	0.05554485
46	0x88	0.05554485
47	0x8b	0.076374166
48	0x82	0.013886212
49	0x6e	-0.12497591
50	0x88	0.05554485
51	0x8b	0.076374166
52	0xa0	0.2221794
53	0xa7	0.27078113
54	0x95	0.14580522
55	0x94	0.13886212
56	0x64	-0.19440697
57	0x8d	0.09026038
58	0x79	-0.048601743
59	0x97	0.15969144
60	0x88	0.05554485
61	0x97	0.15969144
62	0x85	0.03471553
63	0xb6	0.37492773
64	0x8f	0.10414659
65	0x71	-0.10414659
66	0x9e	0.20829318
67	0x8f	0.10414659
68	0x8a	0.06943106
69	0x92	0.12497591
70	0x8d	0.09026038
71	0x98	0.16663454
72	0x9e	0.20829318
73	0x6d	-0.13191901
74	0x8d	0.09026038
75	0xa2	0.23606561
76	0x8f	0.10414659
77	0x97	0.15969144
78	0x97	0.15969144
79	0x60	-0.2221794
80	0x89	0.062487956
81	0x7f	-0.006943106
82	0x6d	-0.13191901
83	0x6f	-0.118032806
84	0x7c	-0.027772425
85	0x79	-0.048601743
86	0x54	-0.30549666
87	0x8e	0.097203486
88	0x8f	0.10414659
89	0x84	0.027772425
90	0x7a	-0.041658636
91	0x98	0.16663454
92	0x80	0.0
93	0x7a	-0.041658636
94	0x90	0.1110897
95	0x91	0.118032806
96	0x80	0.0
97	0x8f	0.10414659
98	0x7c	-0.027772425
99	0x83	0.020829318
100	0x51	-0.32632598
101	0x89	0.062487956
102	0x84	0.027772425
103	0x72	-0.097203486
104	0x86	0.041658636
105	0x8f	0.10414659
106	0x60	-0.2221794
107	0x73	-0.09026038
108	0x8b	0.076374166
109	0x7d	-0.020829318
110	0x7d	-0.020829318
111	0x6b	-0.14580522
112	0x86	0.041658636
113	0x68	-0.16663454
114	0x86	0.041658636
115	0x67	-0.17357765
116	0x67	-0.17357765
117	0x87	0.048601743
118	0x6e	-0.12497591
119	0x94	0.13886212
120	0x8b	0.076374166
121	0x89	0.062487956
122	0x94	0.13886212
123	0x7d	-0.020829318
124	0x65	-0.18746386
125	0x7a	-0.041658636
126	0x6f	-0.118032806
127	0x74	-0.08331727
128	0x7b	-0.03471553
129	0x81	0.006943106
130	0x8d	0.09026038
131	0x91	0.118032806
132	0x89	0.062487956
133	0x90	0.1110897
134	0x89	0.062487956
135	0x87	0.048601743
136	0x72	-0.097203486
137	0x92	0.12497591
138	0x7e	-0.013886212
139	0x68	-0.16663454
140	0x81	0.006943106
141	0x78	-0.05554485
142	0x8b	0.076374166
143	0x94	0.13886212
144	0x84	0.027772425
145	0x59	-0.27078113
146	0x6c	-0.13886212
147	0x8b	0.076374166
148	0x8a	0.06943106
149	0x74	-0.08331727
150	0x6f	-0.118032806
151	0x6b	-0.14580522
152	0x94	0.13886212
153	0x7a	-0.041658636
154	0x86	0.041658636
155	0x84	0.027772425
156	0x63	-0.20135008
157	0x7b	-0.03471553
158	0x98	0.16663454
159	0x75	-0.076374166
160	0x92	0.12497591
161	0x9f	0.21523629
162	0x88	0.05554485
163	0x84	0.027772425
164	0xa8	0.27772424
165	0x98	0.16663454
166	0x78	-0.05554485
167	0x83	0.020829318
168	0x88	0.05554485
169	0x91	0.118032806
170	0x84	0.027772425
171	0x81	0.006943106
172	0x8f	0.10414659
173	0x6d	-0.13191901
174	0x7b	-0.03471553
175	0x91	0.118032806
176	0x83	0.020829318
177	0x83	0.020829318
178	0x50	-0.3332691
179	0x93	0.13191901
180	0x7b	-0.03471553
181	0x7d	-0.020829318
182	0x88	0.05554485
183	0x91	0.118032806
184	0x71	-0.10414659
185	0x8b	0.076374166
186	0x73	-0.09026038
187	0x87	0.048601743
188	0x5c	-0.24995182
189	0x7d	-0.020829318
190	0x46	-0.40270016
191	0x9f	0.21523629
192	0x83	0.020829318
193	0x76	-0.06943106
194	0x82	0.013886212
195	0x85	0.03471553
196	0x8f	0.10414659
197	0x8d	0.09026038
198	0x7c	-0.027772425
199	0x76	-0.06943106
200	0x81	0.006943106
201	0x90	0.1110897
202	0x75	-0.076374166
203	0x82	0.013886212
204	0xa4	0.24995182
205	0x66	-0.18052076
206	0x7b	-0.03471553
207	0x78	-0.05554485
208	0x7c	-0.027772425
209	0x7b	-0.03471553
210	0x7b	-0.03471553
211	0x77	-0.062487956
212	0xaf	0.32632598
213	0x78	-0.05554485
214	0x7e	-0.013886212
215	0x7e	-0.013886212
216	0x7c	-0.027772425
217	0x82	0.013886212
218	0x75	-0.076374166
219	0x81	0.006943106
220	0x8c	0.08331727
221	0x8f	0.10414659
222	0x75	-0.076374166
223	0x98	0.16663454
224	0x81	0.006943106
225	0x88	0.05554485
226	0x72	-0.097203486
227	0x4b	-0.36798462
228	0x7c	-0.027772425
229	0x86	0.041658636
230	0x86	0.041658636
231	0x97	0.15969144
232	0x65	-0.18746386
233	0x76	-0.06943106
234	0x78	-0.05554485
235	0x83	0.020829318
236	0xa5	0.25689492
237	0x96	0.15274833
238	0x90	0.1110897
239	0x93	0.13191901
240	0x63	-0.20135008
241	0x81	0.006943106
242	0x86	0.041658636
243	0x8b	0.076374166
244	0x6c	-0.13886212
245	0x93	0.13191901
246	0x84	0.027772425
247	0x81	0.006943106
248	0x90	0.1110897
249	0x73	-0.09026038
250	0x64	-0.19440697
251	0x68	-0.16663454
252	0x65	-0.18746386
253	0x82	0.013886212
254	0x83	0.020829318
255	0x85	0.03471553

MobilenetV1/MobilenetV1/Conv2d_12_depthwise/weights_quant/FakeQuantWithMinMaxVars u1 [1, 3, 3, 128] scale=0.01095089 zero_point=96
0	0x7b	0.29567403
1	0x52	-0.15331246
2	0x52	-0.15331246
3	0x7e	0.3285267
4	0x55	-0.120459795
5	0x4c	-0.2190178
6	0x50	-0.17521425
7	0x54	-0.13141069
8	0x4e	-0.19711603
9	0x70	0.17521425
10	0x4a	-0.24091959
11	0x75	0.2299687
12	0x54	-0.13141069
13	0x77	0.25187048
14	0x54	-0.13141069
15	0x74	0.2190178
16	0x8a	0.4599374
17	0x9d	0.66800433
18	0x7e	0.3285267
19	0x7f	0.3394776
20	0x52	-0.15331246
21	0x24	-0.6570534
22	0x75	0.2299687
23	0x54	-0.13141069
24	0x51	-0.16426335
25	0x7d	0.3175758
26	0x54	-0.13141069
27	0x38	-0.4380356
28	0x76	0.24091959
29	0x49	-0.25187048
30	0x74	0.2190178
31	0x71	0.18616514
32	0x78	0.26282138
33	0x74	0.2190178
34	0x7e	0.3285267
35	0x72	0.19711603
36	0x52	-0.15331246
37	0x54	-0.13141069
38	0x46	-0.28472316
39	0x75	0.2299687
40	0x53	-0.14236158
41	0x45	-0.29567403
42	0x4b	-0.2299687
43	0x49	-0.25187048
44	0x54	-0.13141069
45	0x55	-0.120459795
46	0x52	-0.15331246
47	0x5b	-0.05475445
48	0x49	-0.25187048
49	0x53	-0.14236158
50	0x7b	0.29567403
51	0x46	-0.28472316
52	0x83	0.38328117
53	0x54	-0.13141069
54	0x25	-0.64610255
55	0x0f	-0.88702214
56	0x9d	0.66800433
57	0x4d	-0.20806691
58	0x54	-0.13141069
59	0x32	-0.50374097
60	0x39	-0.4270847
61	0x77	0.25187048
62	0x46	-0.28472316
63	0x4b	-0.2299687
64	0x72	0.19711603
65	0x4d	-0.20806691
66	0x7e	0.3285267
67	0x55	-0.120459795
68	0x61	0.01095089
69	0x72	0.19711603
70	0x53	-0.14236158
71	0x74	0.2190178
72	0x50	-0.17521425
73	0x40	-0.3504285
74	0x26	-0.6351516
75	0x70	0.17521425
76	0x85	0.40518296
77	0x73	0.20806691
78	0x70	0.17521425
79	0x77	0.25187048
80	0x74	0.2190178
81	0x74	0.2190178
82	0x79	0.27377227
83	0x74	0.2190178
84	0x55	-0.120459795
85	0x54	-0.13141069
86	0x7f	0.3394776
87	0x53	-0.14236158
88	0x48	-0.26282138
89	0x75	0.2299687
90	0x4e	-0.19711603
91	0x74	0.2190178
92	0x81	0.36137938
93	0x46	-0.28472316
94	0x50	-0.17521425
95	0x79	0.27377227
96	0x6f	0.16426335
97	0x7d	0.3175758
98	0x54	-0.13141069
99	0x75	0.2299687
100	0x4b	-0.2299687
101	0x54	-0.13141069
102	0x7e	0.3285267
103	0x70	0.17521425
104	0x7b	0.29567403
105	0x53	-0.14236158
106	0x7f	0.3394776
107	0x84	0.39423206
108	0x76	0.24091959
109	0x4d	-0.20806691
110	0x72	0.19711603
111	0x47	-0.27377227
112	0x50	-0.17521425
113	0x71	0.18616514
114	0x89	0.4489865
115	0x4d	-0.20806691
116	0x7e	0.3285267
117	0x51	-0.16426335
118	0x4f	-0.18616514
119	0x71	0.18616514
120	0x3f	-0.36137938
121	0x44	-0.30662492
122	0x78	0.26282138
123	0x7d	0.3175758
124	0x75	0.2299687
125	0x75	0.2299687
126	0x3c	-0.39423206
127	0x51	-0.16426335
128	0x83	0.38328117
129	0x4f	-0.18616514
130	0x4d	-0.20806691
131	0x84	0.39423206
132	0x51	-0.16426335
133	0x48	-0.26282138
134	0x4f	-0.18616514
135	0x53	-0.14236158
136	0x49	-0.25187048
137	0x75	0.2299687
138	0x45	-0.29567403
139	0x7a	0.28472316
140	0x51	-0.16426335
141	0x7d	0.3175758
142	0x51	-0.16426335
143	0x7a	0.28472316
144	0x91	0.5365936
145	0xa5	0.7556114
146	0x87	0.4270847
147	0x86	0.41613382
148	0x4e	-0.19711603
149	0x19	-0.7775132
150	0x7a	0.28472316
151	0x51	-0.16426335
152	0x4e	-0.19711603
153	0x83	0.38328117
154	0x50	-0.17521425
155	0x31	-0.5146918
156	0x7c	0.30662492
157	0x44	-0.30662492
158	0x78	0.26282138
159	0x78	0.26282138
160	0x7e	0.3285267
161	0x79	0.27377227
162	0x86	0.41613382
163	0x77	0.25187048
164	0x4f	-0.18616514
165	0x50	-0.17521425
166	0x3e	-0.37233028
167	0x79	0.27377227
168	0x4f	-0.18616514
169	0x43	-0.3175758
170	0x43	-0.3175758
171	0x48	-0.26282138
172	0x51	-0.16426335
173	0x52	-0.15331246
174	0x4f	-0.18616514
175	0x57	-0.098558016
176	0x46	-0.28472316
177	0x50	-0.17521425
178	0x82	0.37233028
179	0x41	-0.3394776
180	0x8b	0.4708883
181	0x6d	0.14236158
182	0x14	-0.83226764
183	0x01	-1.0403346
184	0x46	-0.28472316
185	0x4c	-0.2190178
186	0x52	-0.15331246
187	0x26	-0.6351516
188	0x31	-0.5146918
189	0x7e	0.3285267
190	0x43	-0.3175758
191	0x47	-0.27377227
192	0x76	0.24091959
193	0x49	-0.25187048
194	0x85	0.40518296
195	0xa9	0.799415
196	0x6f	0.16426335
197	0x78	0.26282138
198	0x50	-0.17521425
199	0x79	0.27377227
200	0x4c	-0.2190178
201	0x39	-0.4270847
202	0x27	-0.62420076
203	0x74	0.2190178
204	0x8c	0.48183918
205	0x76	0.24091959
206	0x74	0.2190178
207	0x7b	0.29567403
208	0x7a	0.28472316
209	0x79	0.27377227
210	0x80	0.3504285
211	0x7b	0.29567403
212	0x52	-0.15331246
213	0x51	-0.16426335
214	0x81	0.36137938
215	0x4f	-0.18616514
216	0x41	-0.3394776
217	0x79	0.27377227
218	0x4f	-0.18616514
219	0x78	0.26282138
220	0x89	0.4489865
221	0x41	-0.3394776
222	0x4b	-0.2299687
223	0x80	0.3504285
224	0x72	0.19711603
225	0x85	0.40518296
226	0x51	-0.16426335
227	0x7b	0.29567403
228	0x48	-0.26282138
229	0x51	-0.16426335
230	0x82	0.37233028
231	0x75	0.2299687
232	0x7f	0.3394776
233	0x4f	-0.18616514
234	0x85	0.40518296
235	0x85	0.40518296
236	0x79	0.27377227
237	0x49	-0.25187048
238	0x77	0.25187048
239	0x41	-0.3394776
240	0x4a	-0.24091959
241	0x76	0.24091959
242	0x91	0.5365936
243	0x49	-0.25187048
244	0x86	0.41613382
245	0x4d	-0.20806691
246	0x4c	-0.2190178
247	0x75	0.2299687
248	0x3a	-0.41613382
249	0x3b	-0.40518296
250	0x7d	0.3175758
251	0x6f	0.16426335
252	0x7b	0.29567403
253	0x7b	0.29567403
254	0x34	-0.48183918
255	0x4c	-0.2190178

MobilenetV1/MobilenetV1/Conv2d_12_pointwise/weights_quant/FakeQuantWithMinMaxVars u1 [256, 1, 1, 128] scale=0.016312914 zero_point=114
0	0x69	-0.14681622
1	0x6f	-0.048938744
2	0x71	-0.016312914
3	0x75	0.048938744
4	0x7d	0.17944205
5	0x73	0.016312914
6	0x61	-0.27731955
7	0x60	-0.29363245
8	0x72	0.0
9	0x88	0.3588841
10	0x77	0.08156457
11	0x67	-0.17944205
12	0x66	-0.19575498
13	0x7b	0.14681622
14	0x7c	0.16312914
15	0x79	0.1141904
16	0x79	0.1141904
17	0x85	0.30994537
18	0x7a	0.13050331
19	0x64	-0.2283808
20	0x90	0.48938742
21	0x6f	-0.048938744
22	0x63	-0.24469371
23	0x7c	0.16312914
24	0x76	0.065251656
25	0x6e	-0.065251656
26	0x68	-0.16312914
27	0x7e	0.19575498
28	0x78	0.09787749
29	0x69	-0.14681622
30	0x79	0.1141904
31	0x6d	-0.08156457
32	0x7c	0.16312914
33	0x73	0.016312914
34	0x67	-0.17944205
35	0x59	-0.40782285
36	0x6c	-0.09787749
37	0x70	-0.032625828
38	0x79	0.1141904
39	0x72	0.0
40	0x68	-0.16312914
41	0x79	0.1141904
42	0x84	0.29363245
43	0x7c	0.16312914
44	0x64	-0.2283808
45	0x82	0.26100662
46	0x6e	-0.065251656
47	0x76	0.065251656
48	0x77	0.08156457
49	0x6f	-0.048938744
50	0x8e	0.4567616
51	0x76	0.065251656
52	0x86	0.32625827
53	0x6e	-0.065251656
54	0x6c	-0.09787749
55	0x74	0.032625828
56	0x75	0.048938744
57	0x81	0.24469371
58	0x69	-0.14681622
59	0x80	0.2283808
60	0x76	0.065251656
61	0x73	0.016312914
62	0x6e	-0.065251656
63	0x6b	-0.1141904
64	0x7b	0.14681622
65	0x8c	0.42413577
66	0x69	-0.14681622
67	0x6f	-0.048938744
68	0x6b	-0.1141904
69	0x79	0.1141904
70	0x7e	0.19575498
71	0x7b	0.14681622
72	0x78	0.09787749
73	0x65	-0.21206789
74	0x78	0.09787749
75	0x76	0.065251656
76	0x6a	-0.13050331
77	0x64	-0.2283808
78	0x72	0.0
79	0x5a	-0.39150995
80	0x86	0.32625827
81	0x72	0.0
82	0x73	0.016312914
83	0x83	0.27731955
84	0x64	-0.2283808
85	0x77	0.08156457
86	0x76	0.065251656
87	0x71	-0.016312914
88	0x69	-0.14681622
89	0x6d	-0.08156457
90	0x59	-0.40782285
91	0x6a	-0.13050331
92	0x7c	0.16312914
93	0x6a	-0.13050331
94	0x82	0.26100662
95	0x6d	-0.08156457
96	0x67	-0.17944205
97	0x74	0.032625828
98	0x73	0.016312914
99	0x71	-0.016312914
100	0x7d	0.17944205
101	0x71	-0.016312914
102	0x73	0.016312914
103	0x6f	-0.048938744
104	0x61	-0.27731955
105	0x74	0.032625828
106	0x6f	-0.048938744
107	0x72	0.0
108	0x74	0.032625828
109	0x81	0.24469371
110	0x79	0.1141904
111	0x74	0.032625828
112	0x6d	-0.08156457
113	0x73	0.016312914
114	0x6d	-0.08156457
115	0x6a	-0.13050331
116	0x73	0.016312914
117	0x5c	-0.3588841
118	0x70	-0.032625828
119	0x65	-0.21206789
120	0x78	0.09787749
121	0x7a	0.13050331
122	0x7c	0.16312914
123	0x72	0.0
124	0x6e	-0.065251656
125	0x6a	-0.13050331
126	0x7a	0.13050331
127	0x86	0.32625827
128	0x6f	-0.048938744
129	0x78	0.09787749
130	0x71	-0.016312914
131	0x75	0.048938744
132	0x75	0.048938744
133	0x75	0.048938744
134	0x68	-0.16312914
135	0x75	0.048938744
136	0x6e	-0.065251656
137	0x76	0.065251656
138	0x77	0.08156457
139	0x76	0.065251656
140	0x6e	-0.065251656
141	0x72	0.0
142	0x70	-0.032625828
143	0x6e	-0.065251656
144	0x6d	-0.08156457
145	0x72	0.0
146	0x6d	-0.08156457
147	0x72	0.0
148	0x75	0.048938744
149	0x74	0.032625828
150	0x71	-0.016312914
151	0x71	-0.016312914
152	0x73	0.016312914
153	0x77	0.08156457
154	0x75	0.048938744
155	0x7a	0.13050331
156	0x70	-0.032625828
157	0x71	-0.016312914
158	0x68	-0.16312914
159	0x6c	-0.09787749
160	0x76	0.065251656
161	0x72	0.0
162	0x71	-0.016312914
163	0x72	0.0
164	0x80	0.2283808
165	0x72	0.0
166	0x77	0.08156457
167	0x74	0.032625828
168	0x75	0.048938744
169	0x6d	-0.08156457
170	0x78	0.09787749
171	0x79	0.1141904
172	0x73	0.016312914
173	0x71	-0.016312914
174	0x70	-0.032625828
175	0x69	-0.14681622
176	0x7d	0.17944205
177	0x6e	-0.065251656
178	0x70	-0.032625828
179	0x6b	-0.1141904
180	0x72	0.0
181	0x71	-0.016312914
182	0x6e	-0.065251656
183	0x6f	-0.048938744
184	0x75	0.048938744
185	0x6d	-0.08156457
186	0x7d	0.17944205
187	0x78	0.09787749
188	0x6a	-0.13050331
189	0x70	-0.032625828
190	0x6e	-0.065251656
191	0x71	-0.016312914
192	0x72	0.0
193	0x74	0.032625828
194	0x70	-0.032625828
195	0x74	0.032625828
196	0x74	0.032625828
197	0x6e	-0.065251656
198	0x75	0.048938744
199	0x69	-0.14681622
200	0x73	0.016312914
201	0x6d	-0.08156457
202	0x72	0.0
203	0x72	0.0
204	0x75	0.048938744
205	0x6f	-0.048938744
206	0x75	0.048938744
207	0x71	-0.016312914
208	0x6f	-0.048938744
209	0x74	0.032625828
210	0x72	0.0
211	0x6c	-0.09787749
212	0x6d	-0.08156457
213	0x6d	-0.08156457
214	0x75	0.048938744
215	0x78	0.09787749
216	0x76	0.065251656
217	0x77	0.08156457
218	0x76	0.065251656
219	0x77	0.08156457
220	0x6e	-0.065251656
221	0x73	0.016312914
222	0x73	0.016312914
223	0x71	-0.016312914
224	0x74	0.032625828
225	0x73	0.016312914
226	0x75	0.048938744
227	0x6d	-0.08156457
228	0x73	0.016312914
229	0x6c	-0.09787749
230	0x73	0.016312914
231	0x77	0.08156457
232	0x77	0.08156457
233	0x6f	-0.048938744
234	0x71	-0.016312914
235	0x79	0.1141904
236	0x79	0.1141904
237	0x72	0.0
238	0x6a	-0.13050331
239	0x77	0.08156457
240	0x76	0.065251656
241	0x70	-0.032625828
242	0x78	0.09787749
243	0x78	0.09787749
244	0x6f	-0.048938744
245	0x73	0.016312914
246	0x75	0.048938744
247	0x73	0.016312914
248	0x7a	0.13050331
249	0x6f	-0.048938744
250	0x6b	-0.1141904
251	0x7c	0.16312914
252	0x77	0.08156457
253	0x72	0.0
254	0x70	-0.032625828
255	0x72	0.0

MobilenetV1/MobilenetV1/Conv2d_13_depthwise/weights_quant/FakeQuantWithMinMaxVars u1 [1, 3, 3, 256] scale=0.026025677 zero_point=176
0	0xa8	-0.20820542
1	0xe8	1.4574379
2	0xcc	0.72871894
3	0xa5	-0.28628245
4	0xe7	1.4314122
5	0x99	-0.59859055
6	0x5a	-2.2382083
7	0xda	1.0930785
8	0xc0	0.41641083
9	0xa8	-0.20820542
10	0xa4	-0.31230813
11	0xbc	0.31230813
12	0x87	-1.0670527
13	0xd7	1.0150014
14	0xbd	0.33833382
15	0x99	-0.59859055
16	0xa6	-0.26025677
17	0xa4	-0.31230813
18	0x9f	-0.44243652
19	0xc4	0.52051353
20	0xa3	-0.33833382
21	0xa6	-0.26025677
22	0x98	-0.62461627
23	0xc8	0.62461627
24	0xbd	0.33833382
25	0xc2	0.4684622
26	0xa7	-0.2342311
27	0xc6	0.5725649
28	0xca	0.67666763
29	0xa0	-0.41641083
30	0xc0	0.41641083
31	0xa6	-0.26025677
32	0x8c	-0.9369244
33	0xab	-0.13012838
34	0xa4	-0.31230813
35	0xa2	-0.36435947
36	0xbf	0.39038515
37	0xa5	-0.28628245
38	0xa7	-0.2342311
39	0xa4	-0.31230813
40	0xa9	-0.18217973
41	0xbd	0.33833382
42	0xe2	1.3012838
43	0xc6	0.5725649
44	0x9f	-0.44243652
45	0xf1	1.691669
46	0x92	-0.7807703
47	0xa5	-0.28628245
48	0xa3	-0.33833382
49	0xa5	-0.28628245
50	0xc7	0.59859055
51	0xea	1.5094893
52	0xc6	0.5725649
53	0xa5	-0.28628245
54	0xa6	-0.26025677
55	0xa5	-0.28628245
56	0xa9	-0.18217973
57	0xa7	-0.2342311
58	0xc1	0.44243652
59	0xc2	0.4684622
60	0xc0	0.41641083
61	0xa3	-0.33833382
62	0xc5	0.54653925
63	0xa2	-0.36435947
64	0xa3	-0.33833382
65	0xd3	0.9108987
66	0xbb	0.28628245
67	0xa7	-0.2342311
68	0xc1	0.44243652
69	0xa4	-0.31230813
70	0xa4	-0.31230813
71	0xbe	0.36435947
72	0xf6	1.8217974
73	0xc5	0.54653925
74	0x9f	-0.44243652
75	0xa4	-0.31230813
76	0xc1	0.44243652
77	0xa6	-0.26025677
78	0xcd	0.75474465
79	0x9f	-0.44243652
80	0x9e	-0.4684622
81	0xbd	0.33833382
82	0xa8	-0.20820542
83	0xb8	0.20820542
84	0xcc	0.72871894
85	0xdf	1.2232069
86	0xac	-0.10410271
87	0xc3	0.49448785
88	0xc1	0.44243652
89	0xa9	-0.18217973
90	0xa4	-0.31230813
91	0xc0	0.41641083
92	0xc0	0.41641083
93	0xa7	-0.2342311
94	0x9c	-0.52051353
95	0xde	1.1971811
96	0x9c	-0.52051353
97	0xc3	0.49448785
98	0xc3	0.49448785
99	0xb8	0.20820542
100	0xc4	0.52051353
101	0xd9	1.0670527
102	0xa0	-0.41641083
103	0xc4	0.52051353
104	0xbf	0.39038515
105	0xa8	-0.20820542
106	0xc0	0.41641083
107	0xa8	-0.20820542
108	0xb8	0.20820542
109	0xdb	1.1191041
110	0xa7	-0.2342311
111	0xa4	-0.31230813
112	0xbf	0.39038515
113	0xc2	0.4684622
114	0xa3	-0.33833382
115	0x8e	-0.88487303
116	0xe2	1.3012838
117	0xc6	0.5725649
118	0xbc	0.31230813
119	0xa4	-0.31230813
120	0xa1	-0.39038515
121	0xa4	-0.31230813
122	0x3b	-3.0450041
123	0xa4	-0.31230813
124	0xa7	-0.2342311
125	0xc5	0.54653925
126	0xa5	-0.28628245
127	0xb9	0.2342311
128	0x9a	-0.5725649
129	0x2f	-3.3573124
130	0xa8	-0.20820542
131	0xa6	-0.26025677
132	0x97	-0.6506419
133	0xdf	1.2232069
134	0xb7	0.18217973
135	0xc1	0.44243652
136	0xbe	0.36435947
137	0x9f	-0.44243652
138	0xc3	0.49448785
139	0xca	0.67666763
140	0xa7	-0.2342311
141	0xbd	0.33833382
142	0x89	-1.0150014
143	0xbd	0.33833382
144	0xc8	0.62461627
145	0xd3	0.9108987
146	0xbf	0.39038515
147	0xc3	0.49448785
148	0xca	0.67666763
149	0xa8	-0.20820542
150	0xe0	1.2492325
151	0xc0	0.41641083
152	0xb7	0.18217973
153	0x9f	-0.44243652
154	0xa1	-0.39038515
155	0xa9	-0.18217973
156	0xa4	-0.31230813
157	0x97	-0.6506419
158	0xa4	-0.31230813
159	0xde	1.1971811
160	0xa6	-0.26025677
161	0xc4	0.52051353
162	0xc0	0.41641083
163	0xb0	0.0
164	0xb6	0.15615407
165	0xbd	0.33833382
166	0xa3	-0.33833382
167	0xc3	0.49448785
168	0xba	0.26025677
169	0x9d	-0.49448785
170	0xc3	0.49448785
171	0xa6	-0.26025677
172	0xa6	-0.26025677
173	0xc2	0.4684622
174	0xb9	0.2342311
175	0xda	1.0930785
176	0xa5	-0.28628245
177	0xa9	-0.18217973
178	0xa6	-0.26025677
179	0xb9	0.2342311
180	0xa1	-0.39038515
181	0xa6	-0.26025677
182	0x93	-0.75474465
183	0x9f	-0.44243652
184	0xb9	0.2342311
185	0x9c	-0.52051353
186	0xa5	-0.28628245
187	0xa3	-0.33833382
188	0xbe	0.36435947
189	0x99	-0.59859055
190	0xa8	-0.20820542
191	0xbc	0.31230813
192	0xc0	0.41641083
193	0xbf	0.39038515
194	0xbf	0.39038515
195	0xbf	0.39038515
196	0xa5	-0.28628245
197	0xa1	-0.39038515
198	0xb8	0.20820542
199	0xd1	0.8588473
200	0xa8	-0.20820542
201	0xbf	0.39038515
202	0xa8	-0.20820542
203	0xc9	0.6506419
204	0x04	-4.4764166
205	0xbb	0.28628245
206	0xc6	0.5725649
207	0xbc	0.31230813
208	0xa0	-0.41641083
209	0xbe	0.36435947
210	0xbc	0.31230813
211	0xfb	1.9519258
212	0xa8	-0.20820542
213	0xbc	0.31230813
214	0xbc	0.31230813
215	0xc2	0.4684622
216	0xc7	0.59859055
217	0xbf	0.39038515
218	0xc4	0.52051353
219	0xa2	-0.36435947
220	0x9e	-0.4684622
221	0xba	0.26025677
222	0xd6	0.9889757
223	0xa4	-0.31230813
224	0xa3	-0.33833382
225	0xbe	0.36435947
226	0xaa	-0.15615407
227	0xde	1.1971811
228	0xc2	0.4684622
229	0xb9	0.2342311
230	0xb9	0.2342311
231	0xba	0.26025677
232	0x99	-0.59859055
233	0x9e	-0.4684622
234	0x9a	-0.5725649
235	0xa4	-0.31230813
236	0xbc	0.31230813
237	0xa6	-0.26025677
238	0xc6	0.5725649
239	0xcd	0.75474465
240	0xb7	0.18217973
241	0xbf	0.39038515
242	0xc0	0.41641083
243	0xc0	0.41641083
244	0x9b	-0.54653925
245	0xc1	0.44243652
246	0x9e	-0.4684622
247	0xc2	0.4684622
248	0xdc	1.1451298
249	0xb9	0.2342311
250	0xa0	-0.41641083
251	0x9c	-0.52051353
252	0xc9	0.6506419
253	0xc3	0.49448785
254	0x8c	-0.9369244
255	0xa3	-0.33833382
